主要的[个人项目]（可直接使用）/深度学习：股票预测全流程——东方财经/杂项/lenet5.pth (torch, 250154 bytes, 10 tensors)

conv1.weight f4 [6, 1, 5, 5]
000000 b7 9b 2c bf d9 37 38 bf 36 a7 2b bf f1 77 f2 be
       -0.674251 -0.71960217 -0.6705202 -0.47357133
000010 49 bf 28 bf a2 3a 87 3e 06 f0 d8 3e ac f7 0b 3e
       -0.6591688 0.2641192 0.42370623 0.13668698
000020 df 11 0f 3f 9f b8 b7 3e 8a a7 5f 3f 13 16 8b 3f
       0.55886644 0.35883042 0.8736502 1.0866112
000030 59 6a c2 3f 39 25 a7 3f 3e d3 43 3f af 88 e0 3e
       1.5188705 1.3058234 0.76494205 0.4385428
000040 55 98 55 3f f8 50 82 3f 9f 5d 0b 3f 7e c2 05 3f
       0.83435565 1.018096 0.5443973 0.52249897
000050 cb 0d 2e ba f0 eb 7d 3e bf cd 17 bd 49 dc 75 3c
       -0.00066396286 0.24797034 -0.03706145 0.015006133
000060 b8 da 7a be fd 0c c1 be 2c c5 1e be 30 c5 29 be
       -0.24497497 -0.37705222 -0.15504903 -0.16579127
000070 2f 8c 5a 3e d2 be ca be dc 65 16 3f 94 29 33 3f
       0.21342538 -0.3959871 0.58749175 0.6998532
000080 ae 72 95 3f e3 4d 4a 3f 62 fd 29 3e ca fa e3 3e
       1.1675622 0.79025096 0.16600564 0.44527274
000090 dc e2 91 3f 93 fc d9 3f 9e 07 6c 3f 0d 16 cf bb
       1.1397357 1.7030205 0.9219912 -0.0063197673
0000a0 80 a9 d6 bc 4b 86 ea 3e 27 c0 0e 3f 18 4a e5 3d
       -0.02620387 0.45805582 0.5576195 0.11195773
0000b0 a0 c0 14 bf dd 69 13 bf 4f 2a c3 be aa fd 23 bf
       -0.5810642 -0.5758341 -0.38118216 -0.64058936
0000c0 10 6c 3b bf 8a 1e a5 bf 0f 94 20 bd 87 8b 26 3e
       -0.73211765 -1.2899945 -0.0392037 0.16264163
0000d0 20 dd fe 3e 15 8f 76 3f 64 e7 7b 3f 91 6d af 3d
       0.4977808 0.96312076 0.9839995 0.0856582
0000e0 b4 f4 03 3e e4 37 ae 3e 6c 98 7c 3f ad 24 48 3f
       0.12886316 0.34027016 0.9867008 0.7818096
0000f0 3b 13 ca be 45 dc 09 bf 20 6a 62 3d b5 55 0a 3f
       -0.39467797 -0.5385173 0.05527699 0.5403703
000100 f7 46 49 3f c6 0b 8a bf 46 6e 5d bf b6 64 05 be
       0.7862391 -1.0784843 -0.8649639 -0.130267
000110 47 7c 69 3d f3 4b 3d 3e b4 9f b2 bf a6 65 68 bf
       0.057003286 0.18486004 -1.3954988 -0.90780103
000120 4d c5 2d bf 95 7d a9 be 6f bd 1c be 63 7a 88 bd
       -0.6787918 -0.33103624 -0.15306638 -0.066639684
000130 4f d3 8d bc 6d f6 dd bc b8 de 8e bd fa 74 4d bf
       -0.017312674 -0.027095044 -0.06976074 -0.8025662
000140 ae 66 4b 3f 18 e0 85 3f d3 7e 8b 3f e0 1e 4a 3f
       0.7945355 1.0459013 1.0898079 0.7895336
000150 50 15 e5 be 27 ea 33 3f c3 53 ad 3f a9 31 a8 3f
       -0.44742823 0.70279163 1.3541187 1.3140155
000160 a2 cc 5e 3f b8 c5 a9 be 14 e5 6a 3d ba 64 38 3f
       0.87030995 -0.3315866 0.057347372 0.72028697
000170 c0 31 1d 3f 30 0f aa 3e fa 6a 34 bf 69 fe 9c be
       0.6140404 0.33214712 -0.70475733 -0.3066285
000180 17 e0 38 be cf 92 98 be cc 41 76 bf de 00 8f bf
       -0.18054233 -0.29799506 -0.9619415 -1.117214
000190 7a 67 8f be 69 e0 0c 3d 74 9b 1b 3e 74 0d e7 3e
       -0.28008634 0.0343937 0.1519602 0.4512745
0001a0 6c b5 75 3e 07 e0 b1 3e 4d f4 ee 3e 9b 42 8d 3f
       0.23994988 0.34741232 0.46670762 1.1035951
0001b0 ed c8 98 3f 3f c9 12 3f bf 42 16 3e e1 95 f7 3e
       1.1936318 0.5733833 0.14673899 0.48356536
0001c0 3e 71 a7 3f 7b 5c 84 3f d4 30 d7 3e 74 f5 ce bd
       1.3081434 1.0340723 0.4202944 -0.1010541
0001d0 bb 10 a8 3d 0a a3 ab 3e 95 3c 60 3e 24 af f1 be
       0.08206316 0.33522826 0.2189811 -0.47203934
0001e0 a1 7b 5b bf 7a ac 14 bf 97 2a 41 bf c4 64 80 bf
       -0.8573552 -0.5807568 -0.7545561 -1.0030751
0001f0 50 74 a4 bf be 4e 0a be ae 30 d5 3c 84 4d 58 bd
       -1.2847996 -0.135066 0.026024189 -0.0528083
000200 00 3c 92 3d e4 a9 25 be 9f ab da 3e 6a f4 49 3f
       0.0714035 -0.1617809 0.42709062 0.7888857
000210 d8 05 62 3f 73 90 5c 3f a5 95 ef 3e f9 5e c5 3e
       0.88290167 0.8615791 0.46793857 0.3854902
000220 c5 3f 51 3f 6e be 97 3f 3a 28 6b 3f 0d 7d fc 3e
       0.8173793 1.185499 0.91858256 0.49314156
000230 5d ea 28 be 8f 84 62 3e 4b 0f 35 3f 01 e8 8e 3e
       -0.16495652 0.2212088 0.7072646 0.2791138
000240 d9 f8 d0 bd 2a 31 ae be 7d 6f a5 3c 39 ea bc be
       -0.10203714 -0.34021884 0.020194763 -0.36897448
000250 68 b4 37 bf c0 f8 3e bf
       -0.71759653 -0.7459831

conv1.bias f4 [6]
000000 39 e9 87 bf bb 47 9a bf 34 67 61 3e 3f 32 9b bf
       -1.0618049 -1.205314 0.22012025 -1.2124709
000010 da 1c a3 bf 2e 0d 95 bf
       -1.274318 -1.1644647

conv2.weight f4 [16, 6, 5, 5]
000000 ff 78 5f 3e 88 f7 9e 3e de 9c bb 3e be 73 b2 3e
       0.218235 0.31048226 0.36643118 0.3485393
000010 f8 51 5c 3e f2 16 bc be 66 50 28 be ad 17 26 be
       0.21515644 -0.36736256 -0.1643692 -0.16219969
000020 81 6d f2 bd 5c f5 22 be 05 3b 0c bf 0d c5 16 bf
       -0.118372925 -0.1591391 -0.54777557 -0.58894426
000030 a4 0f 3c bf 85 aa 2a bf c0 4c 00 bf 1d d6 13 be
       -0.73461366 -0.6666644 -0.5011711 -0.14437146
000040 23 e4 a8 bd c3 77 9c bd 5e 10 81 be a3 bc 1e be
       -0.082466386 -0.0764003 -0.252078 -0.15501647
000050 cf 00 9b 3c f3 10 16 3e 66 27 bf 3d 58 ed cc 3d
       0.018921284 0.14654903 0.093336865 0.10006207
000060 f2 ae 33 bb 79 1a 59 3e 06 3f 4b 3e 0c e5 94 3e
       -0.0027417508 0.21201505 0.1984826 0.29081
000070 7d db 9b 3e 1c ba 4d 3e fe 5a 41 3d 7b b1 f1 3d
       0.30440894 0.20090526 0.047205918 0.1180143
000080 49 69 b2 3e d0 5f a7 3e 20 1c cf 3d 6d e9 22 bf
       0.3484595 0.32690287 0.10112786 -0.6363743
000090 56 dc 3d bf 97 78 44 bf 66 a5 18 bf d3 b1 07 bf
       -0.7416433 -0.76746505 -0.5962738 -0.53005713
0000a0 a0 ab 1a be ab 19 96 bd 22 c8 23 be 5d 80 fc bd
       -0.15104532 -0.073291145 -0.15994313 -0.12329171
0000b0 b3 42 61 be e9 f4 94 3d 8c b5 1f 3d bd a7 86 3d
       -0.219981 0.072732754 0.038991496 0.06574962
0000c0 04 fd e1 b8 7a 40 18 3e f8 7a 29 3e e3 0f cc 3d
       -0.00010775964 0.14868346 0.16550815 0.09963968
0000d0 19 16 95 3d 18 3d ba bd fd bd b5 bc bd d8 e8 3e
       0.072796054 -0.09093684 -0.02218532 0.45477858
0000e0 fc d9 19 3f a7 23 23 3f 81 71 09 3f 4b b4 ef 3e
       0.6009824 0.63726276 0.5368882 0.4681724
0000f0 9c c7 17 bd c1 73 26 bd 60 da af 3d a1 fc 20 3e
       -0.037055597 -0.040637735 0.085865736 0.1572137
000100 80 2d 8c 3e 04 87 2b be 53 bb 18 be 6f 7a 44 be
       0.27378464 -0.16750723 -0.14915209 -0.1918733
000110 7c 15 16 be a8 da 47 3b 53 ff 6e 3d 66 04 bd 3c
       -0.14656633 0.003049532 0.058348965 0.023073386
000120 57 66 38 bd 75 e6 ba bd 4a 36 49 3b aa 6e 12 3e
       -0.045019474 -0.091259874 0.0030702525 0.14300027
000130 a2 e6 1b 3e 8e 9e b8 3e bd 54 a5 3e bc 6c 5c 3e
       0.15224698 0.36058468 0.32291213 0.21525854
000140 d4 af 33 bd 02 3a af 3c 36 a7 97 3e d1 98 92 3e
       -0.043868855 0.021389965 0.2961976 0.28632215
000150 26 2e 05 3e ac fe 1a bf 5c 6e 44 bf 5d 3c 36 bf
       0.13005885 -0.6054485 -0.76730895 -0.7118586
000160 e0 73 33 bf 84 85 de be 54 9b 81 be 3c 4f 47 be
       -0.70098686 -0.4346124 -0.25313818 -0.1946382
000170 5f 89 49 be a2 4b 66 be 4f bf 3a be 2c ff 73 bc
       -0.19681309 -0.22489789 -0.18237041 -0.014892381
000180 e8 db d7 3c d5 1c 19 3e 79 13 16 3e 94 2c 14 3e
       0.026349977 0.14952405 0.14655866 0.1447013
000190 6c de 77 3e 48 9c 42 3e b6 95 52 3e 4a a1 20 3e
       0.24205941 0.19004929 0.20564923 0.15686527
0001a0 16 4f 3c 3e 9c ab 7c 3e d0 3a 6a 3e 79 15 cf 3e
       0.18389544 0.24674839 0.22873998 0.4044607
0001b0 c6 8f a2 3e 00 1a a3 3e 7f 0f 27 bf bf 9a 25 bf
       0.31750315 0.31855774 -0.6525802 -0.6468925
0001c0 3a 1b 2d bf d7 46 21 bf f7 f1 be be fd e3 1d be
       -0.6761967 -0.6299872 -0.3729398 -0.15419002
0001d0 11 5a 3b be 0b 65 7f be f8 37 89 be f1 65 e7 bd
       -0.18296076 -0.24940889 -0.26800513 -0.11298741
0001e0 bd 94 0e 3e b1 1a 39 3e 2e 28 ad 3d 27 c0 00 3d
       0.13923927 0.18076588 0.08454929 0.03143325
0001f0 dd 1c f5 3d 62 c8 60 3e d9 bd 5f 3e 19 8f 84 3e
       0.11968396 0.2195144 0.21849765 0.25890425
000200 fb 7a 73 3e 6a 34 42 3e 6c e2 52 3a fd 6e 33 3c
       0.23777382 0.18965307 0.0008044604 0.010951755
000210 1f ca 5b 3e 94 4f ab 3d 62 e6 c0 3d bc 3c 07 bf
       0.21463822 0.08364788 0.09418942 -0.5282705
000220 30 ba 2c bf f7 4f 2f bf b2 7f f6 be d8 5e 95 be
       -0.674716 -0.6848139 -0.481443 -0.29173923
000230 54 ab 73 be a9 8b 64 be ee 3b 70 be 4d 4b 97 be
       -0.23795825 -0.22318901 -0.23460361 -0.29549637
000240 99 3b 21 be 2f 36 af 3c 58 8d 07 3d 04 47 ae 3b
       -0.15745391 0.021388141 0.03309378 0.0053185243
000250 df a0 86 3d ae 75 0b bd 5e 1d 78 be 97 ba 47 3d
       0.065736525 -0.034047775 -0.24229953 0.04876193
000260 49 af 8d 3e 2f 61 53 3e f5 08 aa 3e 81 5d 04 be
       0.27672794 0.20642541 0.3320996 -0.12926294
000270 d0 04 d8 bc 0a 2d 28 bd ba 5f b3 3d 07 51 0a 3e
       -0.026369482 -0.041058578 0.08758493 0.13507472
000280 68 6b d8 3c 0e 36 25 be 7e 9c c5 be 0c c2 06 bf
       0.026418403 -0.16133901 -0.38595957 -0.5263984
000290 50 a7 cd be 93 ad 2c 3d 1b 6f 5b be e2 a2 c5 be
       -0.40166712 0.04215772 -0.21429102 -0.38600832
0002a0 96 1c f2 be 4d 43 a3 be b0 fe 8d 3e 02 93 a7 bc
       -0.47287434 -0.31887284 0.27733374 -0.020455841
0002b0 d6 8f 80 be b6 f2 7a be b8 b8 10 be a1 16 93 be
       -0.25109738 -0.2450665 -0.14132965 -0.28728202
0002c0 73 9b 82 bd 8c 56 d5 3d 5e f0 ae 3e 5c ea d6 3e
       -0.06377306 0.10416898 0.3416776 0.41975677
0002d0 71 06 8b be d5 5a de 3d 62 a0 a2 3e 13 96 a5 3e
       -0.27153352 0.108571686 0.31762987 0.3234106
0002e0 a9 be d3 3e 10 78 99 3d 0c eb 59 3c c6 3e a7 be
       0.413564 0.07493603 0.013300668 -0.3266508
0002f0 5b 08 d9 be 86 05 a1 be 51 7c 06 3e 94 47 76 be
       -0.42389187 -0.31449527 0.1313336 -0.24050742
000300 e9 23 ba be a7 88 d7 be 94 fa fe be c4 6e 47 3d
       -0.36355522 -0.42096445 -0.4980055 0.04868962
000310 0a 15 f7 bc 32 1c 85 be 6f d7 d6 be 04 fa 41 be
       -0.0301614 -0.25998074 -0.41961238 -0.1894303
000320 fc 8c ba 3e a5 47 80 3e af 56 0a 3e 96 9d f7 bd
       0.36435688 0.2505466 0.1350963 -0.12090604
000330 7c f1 4b be 9a 69 2e 3e cd a3 9e 3e 17 d6 f7 3e
       -0.19916338 0.17032471 0.30984345 0.48405525
000340 a3 4b 05 3f eb 60 00 3f 06 ab 0e 3e cc f3 de 3c
       0.5206854 0.50147885 0.13932428 0.02721586
000350 c3 b2 1f 3e 08 43 f1 3e 9e 27 f1 3e 99 73 8b bd
       0.15595536 0.47121453 0.47100538 -0.06809158
000360 4c b1 ac be ea d6 c1 bd 5b 15 c6 bc 97 da 7d 3e
       -0.33729017 -0.0946482 -0.024180105 0.24790417
000370 af fa 69 be d3 6b ee be c3 4a 01 be e7 a6 41 3c
       -0.22849534 -0.46566638 -0.12626176 0.011819578
000380 43 86 89 3d 3d 28 81 be 0a 55 4c 3d bc 22 8e 3e
       0.067150615 -0.25226012 0.049885787 0.27760875
000390 0e 61 a8 3e 02 8f eb 3e b1 10 67 be 14 c2 63 3d
       0.32886547 0.46007544 -0.22564961 0.05560501
0003a0 bb f2 a0 3e 9d b3 95 3e 43 48 e2 3e a3 7b de 3d
       0.3143519 0.29238597 0.44195756 0.108634256
0003b0 6f 9d c2 bd 6f 69 95 be ad 84 d3 be b6 15 7f be
       -0.09502684 -0.29182002 -0.4131216 -0.24910626
0003c0 29 db ee 3c 10 1f 16 be 8a 91 b7 be 2c b6 b9 be
       0.029157238 -0.14660287 -0.35853225 -0.362718
0003d0 5d 66 04 bf 52 88 84 3d 8b 35 3f be ac 6f b7 be
       -0.51718694 0.064713135 -0.18672769 -0.35827386
0003e0 a7 a2 aa be da 0d 83 be eb 94 3d be aa 33 cf 3d
       -0.3332722 -0.25596505 -0.18513839 0.10117276
0003f0 4a 92 83 3e 9b a8 97 3e 1e 86 88 3e 8e c1 84 be
       0.25697547 0.29620823 0.26664823 -0.2592892

conv2.bias f4 [16]
000000 cd f2 49 3d 74 b1 96 3d a0 1e e3 3c 2b 80 9b 3d
       0.04930382 0.07358065 0.027724564 0.075928055
000010 c9 4b 46 3e 68 cd ca 3d 70 7d 3a be 80 c3 d5 3d
       0.19364847 0.099024594 -0.18211913 0.10437679
000020 d5 fe 51 be 21 49 a1 3d df 01 2f be 5e 7c 9a 3d
       -0.20507367 0.07875276 -0.17090558 0.075432524
000030 99 41 33 bb bd 7a 00 3e c6 f8 31 be c8 0a 3e 3c
       -0.0027352332 0.12546821 -0.17380056 0.01159925

conv3.weight f4 [120, 16, 5, 5]
000000 13 8a ec 3d 16 82 e4 3d 28 5c 74 3d 54 f4 fa 3d
       0.11549773 0.111576244 0.0596582 0.12253633
000010 23 43 f4 3a 14 7f b5 3d 0a 13 29 3e 8a 13 9e be
       0.0018635731 0.08862129 0.16511169 -0.30874282
000020 7d 31 45 bc fa 6a 40 3e 87 81 33 3e 88 5f 23 bb
       -0.012035725 0.18790808 0.1752988 -0.0024928767
000030 50 a9 de be 63 b9 5a bd d4 3e 59 3e ae 8a 90 3c
       -0.4348855 -0.053399455 0.21215373 0.017644253
000040 dc 09 a2 be 2f 6b 7a be 8b 9b ea 3d 07 22 33 3d
       -0.31648147 -0.2445495 0.11455449 0.043733623
000050 a6 e7 40 bb 21 0b 84 3d b3 1c 25 3e b5 72 5d 3e
       -0.0029434948 0.06447435 0.16124229 0.21625789
000060 22 99 7f 3e ae 06 af 3d d4 f3 a6 3d af 03 35 bc
       0.2496076 0.08546196 0.08151975 -0.0110482415
000070 ad 56 0a 3c 0b 01 82 bd 87 72 15 3e 20 5c 1d 3b
       0.008443517 -0.06347855 0.1459447 0.002401121
000080 4f ba 6c be c0 61 60 3e 57 7a 85 bd 8f dd 12 3d
       -0.23117946 0.21912289 -0.06517475 0.035855826
000090 45 17 81 be bc fd 89 bd 1b 7d 95 3e eb 73 a9 3a
       -0.25213066 -0.06737849 0.2919701 0.0012928223
0000a0 b8 d9 c3 bd 53 f8 00 be 8a ed 75 3d 43 62 bd 3d
       -0.09563011 -0.12594728 0.060040988 0.092472576
0000b0 e8 7f 1a 3d 67 c9 bd 3c 33 9e 1d 3e 37 66 f6 ba
       0.037719637 0.023167325 0.1539238 -0.0018798773
0000c0 44 81 1c 3c ec 2b 05 3e 0b 3b 14 3d 63 12 f6 3d
       0.009552304 0.13005036 0.03618912 0.12015226
0000d0 aa 12 ce bc 63 57 97 bd a1 20 72 3d 1a 49 92 3d
       -0.025155384 -0.073897146 0.05911315 0.07142849
0000e0 e5 b6 6e 3e 4d 36 5c be e3 ee 7d bd a4 43 91 3d
       0.23311956 -0.21505089 -0.0619954 0.070929796
0000f0 f7 17 62 3e cc 3d 8b 3e 65 5d c0 be 8d 05 12 be
       0.22079454 0.27195585 -0.37571254 -0.1425993
000100 51 66 d2 3c 58 60 e2 3d b8 6a 4b be 0b 41 1e bf
       0.025683554 0.11053532 -0.19864929 -0.61818
000110 3d 83 28 3e de 52 31 3c 61 12 56 3d 5e 73 bf be
       0.16456313 0.01082298 0.05226362 -0.37392706
000120 b7 fd 01 be c8 60 1b 3e 46 2a 11 bd 7a fd 06 3d
       -0.12694441 0.15173638 -0.035440706 0.032956578
000130 42 f1 b9 bd 6e 6b f4 bd 98 84 f6 bd a6 ab 84 bd
       -0.090792194 -0.11934553 -0.12037009 -0.06478052
000140 de 8a 3e 3d 67 5a f9 3c f5 cb b0 3c a5 4f 69 be
       0.046519153 0.030438615 0.02158163 -0.22784288
000150 eb 72 15 be 92 0e 7f 3d 4c b4 4f 3e 9d 98 f7 3d
       -0.14594619 0.062269755 0.20283622 0.120896555
000160 05 bf 42 3e 62 51 c1 bb f1 8e 0a 3e 46 b0 0f be
       0.1901818 -0.005899594 0.1353109 -0.14032087
000170 57 af 84 bd b3 21 a3 3e 28 bc 9d 3d f4 cd c2 bd
       -0.06478756 0.31861648 0.077019036 -0.09511939
000180 e2 a2 bc be 52 77 6b 3e 49 ed 9e 3e 0d 75 f9 bd
       -0.3684302 0.22994736 0.3104041 -0.12180529
000190 ee 78 27 3e 2e 1b 32 3e e6 57 c6 bd ff ad 9a 3d
       0.16354725 0.1739318 -0.09684734 0.07552718
0001a0 b5 c4 04 3d 99 05 ec 3d 74 3b 67 3e 97 9a 9f be
       0.032414157 0.11524505 0.22581273 -0.3117263
0001b0 90 8f 34 3e df 08 6b 3d 94 15 cd 3d f8 c4 4c bd
       0.1763289 0.057381507 0.10013881 -0.04999253
0001c0 7d ca 00 bf 97 26 84 3d 0b 05 99 3d e9 b5 8e 3c
       -0.5030897 0.06452673 0.07471665 0.017420726
0001d0 d6 28 a1 be 09 ad 12 be 5a 33 d5 3e e1 47 8f bb
       -0.31476468 -0.1432382 0.4164074 -0.0043725823
0001e0 1a 4c 43 3d db d7 48 bd 45 6d 38 3e f2 7f 9a 3e
       0.047679998 -0.04903398 0.18010433 0.3017574
0001f0 fc 07 3a 3e 94 74 c9 3d 29 49 12 3e 5b 45 11 be
       0.18167108 0.09836689 0.14285721 -0.14186613
000200 b2 d5 6f bd df e6 b0 3c 4f b1 41 3d 9f 3d 29 3e
       -0.058553405 0.021594463 0.047288235 0.16527413
000210 5a 3b b1 be 94 20 eb bc 96 c4 6c 3b 04 88 2a 3e
       -0.34615594 -0.028702058 0.0036127917 0.16653448
000220 6a 6c 00 be 5f 54 93 be 75 87 26 3e e5 ba 84 3c
       -0.12541357 -0.28775308 0.1626261 0.0162024
000230 b9 88 9d bd 3c ac 40 be c1 8d 0c bd 01 26 05 3e
       -0.076920934 -0.18815702 -0.034314875 0.13002779
000240 8b a9 9d bd 80 1c c4 bd 2b 12 49 3c 49 9b 55 bd
       -0.076983534 -0.095757484 0.012272398 -0.052150045
000250 11 e2 9f bc 11 21 11 3d 6f 42 c2 3d ad b1 2f 3e
       -0.019516977 0.035431925 0.094853275 0.17157622
000260 0b 44 50 bd b2 d7 c2 bc c2 4b 15 3e a7 32 e1 3d
       -0.05084614 -0.023784492 0.1457968 0.10995989
000270 10 b0 9b be a9 89 05 be e7 47 1f 3e a3 01 f7 3c
       -0.30407763 -0.13040794 0.15554772 0.030152148
000280 f5 06 03 3e 12 c1 9f be 67 a4 38 be ad 48 6c 3e
       0.12795623 -0.31201988 -0.18031465 0.23074599
000290 a4 50 0e bd 45 92 74 be fc 27 c7 be 88 d5 bb 3d
       -0.034744874 -0.23883922 -0.38897693 0.09171587
0002a0 35 68 a6 3e 7c 3d b6 bd 7b e2 2b be c8 9c eb bd
       0.3250138 -0.08898446 -0.16785614 -0.11504513
0002b0 d0 25 93 3e c1 3f b2 3d 22 2d 8e 3d ac 6a fd 3d
       0.28739786 0.08703566 0.06942202 0.12373862
0002c0 1d 99 93 bc 03 55 81 bb bd 15 ed 3d 83 a4 03 be
       -0.018017346 -0.0039469018 0.11576412 -0.12855725
0002d0 7d 29 cf bc aa b0 a8 3d 61 f1 9b be f6 c2 b9 3d
       -0.025288338 0.08236821 -0.30457595 0.09070389
0002e0 2e f2 1a 3e 3f d6 57 3d 7f d6 3b be 29 d1 8e be
       0.15131447 0.052694555 -0.18343543 -0.27893952
0002f0 1e 3a 94 3e a0 6d d6 3e bf 97 a6 3d da 4b 4e bd
       0.2895059 0.41880512 0.08134412 -0.050365306
000300 a1 26 93 be f0 9d 4b 3e 2b f0 53 3e 8e 3e c4 3c
       -0.2874041 0.19884467 0.20697086 0.02395561
000310 a2 b5 20 3e e5 92 62 3d 2e 36 30 3e d3 8b 0e 3e
       0.15694287 0.05531587 0.17208168 0.13920526
000320 76 f4 49 be 35 39 ad bd 1c a8 90 3d 03 90 48 3d
       -0.1972216 -0.08458177 0.07063314 0.048965465
000330 00 88 16 bd d6 e4 0d be 43 48 34 3d ba d8 20 3e
       -0.036750793 -0.13856825 0.044014227 0.15707675
000340 cc 8e 24 3d 9f d7 55 bd a0 9b 19 be b3 b4 9d 3d
       0.040175244 -0.052207585 -0.15000772 0.07700481
000350 41 55 18 3e 35 50 b0 bd fa fe 42 3d a4 db 39 3e
       0.14876272 -0.08609048 0.047606446 0.18150192
000360 bb bb 5c 3d b5 20 c0 3d 5e 2c 2b be e7 8e 44 3e
       0.05388997 0.09381238 -0.16716143 0.19195138
000370 08 d8 a7 3c a6 6c 14 3d ba f1 0a 3d 4c ee 98 3d
       0.020488754 0.036236428 0.033921935 0.074673265
000380 f5 23 97 3d 0f f0 98 3d b9 00 82 3d fa 4a c7 bb
       0.07379905 0.074676625 0.06347794 -0.006081936
000390 1f 76 c9 3d 79 db 62 3d c7 f5 2b 3e f8 dc 3a 3e
       0.09836983 0.055385087 0.16792975 0.18248355
0003a0 b4 04 9c be 77 9b 9e 3e 4c f1 c6 3c 71 76 11 3e
       -0.30472338 0.30977985 0.024284981 0.14205338
0003b0 f7 87 2d be b2 b6 cc be 32 53 63 3d d6 b3 8d 3b
       -0.16946398 -0.39983135 0.055499263 0.0043244166
0003c0 96 8b a0 bc 9b e2 a2 be ab 46 83 bd 05 a9 c8 3c
       -0.01959781 -0.3181351 -0.06409963 0.024494657
0003d0 ea c1 f1 bd cd 38 62 bd db 42 b3 bd 2e 03 0a 3e
       -0.11804564 -0.05522995 -0.08752986 0.13477775
0003e0 5d 0e 63 3d 5e ea cd 3d 1f 5e f9 bc c4 22 0c 3d
       0.05543362 0.100544676 -0.030440388 0.034212843
0003f0 b3 99 93 bd 3f 26 a5 3c 49 fa 4f 3e ce 70 00 be
       -0.0720705 0.020159839 0.2031032 -0.12543032

conv3.bias f4 [120]
000000 32 27 b6 3d 15 61 06 3e 91 56 07 3d 9f 2c 16 bd
       0.08894195 0.13122971 0.03304154 -0.036663648
000010 22 1a 6f 3c a2 47 4e 3d 68 24 46 3d 96 93 a3 3c
       0.014593633 0.050361283 0.048374563 0.019967835
000020 51 f4 31 3d 0f 0b 0e 3d 79 28 94 3d f9 0d ab bd
       0.04344589 0.034678515 0.07234282 -0.083522744
000030 c2 43 ce 3d 1d d9 a0 3c 89 af 80 bd a8 92 90 bd
       0.100715175 0.019634778 -0.06283481 -0.070592225
000040 6c 3b c4 3d 6c 4c 35 3c ae d1 09 bd c6 f5 6e 3d
       0.09581646 0.011065584 -0.03364723 0.058339857
000050 16 bc a6 3d a2 ad 97 bc 87 b0 b5 bb 87 d0 62 3d
       0.08141343 -0.018515412 -0.0055447253 0.05537465
000060 c1 53 a1 3b 44 4b 33 bc 1a d9 46 bd 72 bc 38 bb
       0.0049233143 -0.010943238 -0.048546888 -0.0028188494
000070 8a fc 8e bc 17 fd 25 3c 31 35 c3 bc 64 a7 71 3c
       -0.017454404 0.010131142 -0.023829075 0.014749382
000080 f5 01 0c bd 34 e0 7a bd aa 0f 00 bc a4 35 9f 3c
       -0.034181554 -0.061248973 -0.007816235 0.019434758
000090 1a 24 08 be 7a ee 7c 3d 20 a6 0e 39 0e 19 3f 3d
       -0.13295022 0.061750866 0.00013604062 0.046654753
0000a0 79 ee 10 bd b5 ac e7 bd 74 eb 02 be 0e 8f 93 bd
       -0.035383675 -0.11312238 -0.1278513 -0.0720502
0000b0 ff 65 b4 3c 08 15 2b bd 1e b6 99 bd 18 f2 c1 bc
       0.022021292 -0.041768104 -0.07505439 -0.02367501
0000c0 c0 2f 9b bd c9 9a 69 3d 80 00 00 bd 02 0d 95 3b
       -0.07577467 0.05703238 -0.031250477 0.00454867
0000d0 5b fc f1 bc be 63 6b 3c f6 60 32 3a 54 05 31 3c
       -0.029539278 0.014367042 0.00068046094 0.010804493
0000e0 dd 85 18 3d 45 d5 08 3c 37 04 ba bd a1 14 3f 3d
       0.037237037 0.008351629 -0.09082835 0.046650533
0000f0 41 d4 7e 3d 31 1a f9 bc 5d 6d 9f 3d 9a 13 b6 bd
       0.06221414 -0.030407997 0.07784531 -0.088904575
000100 5d 72 1a bd 00 c5 80 3d 82 e0 ba bd a5 e8 b8 bd
       -0.03770672 0.06287575 -0.09124853 -0.090287484
000110 5e 9a 44 bd fc a3 6d 3c 51 29 51 3b 76 ee 41 bc
       -0.04799878 0.014504429 0.0031915496 -0.011836639
000120 41 28 91 3c f5 90 12 bd e1 2f ae bd db f5 9b 3d
       0.01771939 -0.035782773 -0.08505226 0.076152526
000130 b2 c0 47 bd 25 ab f8 bd f9 9d fe bd 17 e2 4a 3c
       -0.048767753 -0.12142018 -0.12432475 0.012383006
000140 b5 fb a6 3c b4 a0 ad bc 73 b6 b3 bc 1f bc 06 3c
       0.020383695 -0.021194793 -0.021937585 0.0082235625
000150 0a 4e 7d bd ae d0 8f 3d 75 fd 53 3d ee eb ba bd
       -0.061842002 0.07022224 0.051755387 -0.09127031
000160 89 51 8a bd 37 40 1f bd cc 49 dc bd d3 fa 87 3c
       -0.06753833 -0.0388796 -0.10756263 0.016599094
000170 29 7a 6e bd 67 fc bb bd 94 69 b1 3c ba cd 28 bc
       -0.05822197 -0.09179001 0.021656789 -0.010302955
000180 0e e7 dd 3c da 13 95 bd 7f 81 01 3d 7e 31 8a bd
       0.027087715 -0.07279177 0.031617638 -0.06747721
000190 68 6b dc 3c 0e 65 4b bc 90 15 a2 3c 0d ad 7f 3d
       0.026906684 -0.01241423 0.019785672 0.062420893
0001a0 98 6a 18 bd 23 a3 b1 3c 9e 14 2a 3d b6 3c 41 bd
       -0.03721103 0.021684235 0.04152357 -0.04717704
0001b0 d8 79 ef bb 3f d0 ff 3c 35 57 07 bd b5 b7 e4 bc
       -0.007308226 0.03122723 -0.03304215 -0.02791963
0001c0 58 33 a4 3c 4e 9e 26 bd 1f 11 1b 3d fb 57 9e bc
       0.020044014 -0.040678315 0.037858125 -0.019329062
0001d0 75 6b a2 bc 71 95 5a bd ea b2 93 bc 37 85 b7 3c
       -0.01982663 -0.053365175 -0.018029649 0.022402389

fc1.weight f4 [84, 120]
000000 63 2c a1 bd 68 8c 4d bd 78 b7 07 bd 8d 9f 4b bd
       -0.07869794 -0.05018273 -0.033133954 -0.049712706
000010 20 dc d5 bd 11 70 5e be d9 eb ff 3d 67 7b 29 3e
       -0.10442376 -0.21722437 0.12496156 0.1655098
000020 dd 29 ff 3e c3 a1 8c be ed be 1a bf a3 dc 89 3e
       0.49836627 -0.27467164 -0.6044758 0.26926145
000030 cc 03 3f be 75 1a 18 bd 91 7c 99 3e 98 ac cc 3e
       -0.18653792 -0.037134606 0.2997785 0.3997543
000040 b7 c7 7e be 3c 7a 0a be 9d 61 58 be f7 7b 81 3d
       -0.24880873 -0.13523191 -0.21130987 0.063224725
000050 dd e6 04 be 15 f4 a0 bd 83 d7 9d 3e 38 c4 44 be
       -0.12978692 -0.07859055 0.30828485 -0.19215477
000060 0e 1b 82 3e 8c 1e 11 be 92 cc 22 be 2e fa 11 be
       0.25411266 -0.14171809 -0.1589835 -0.14255592
000070 d3 6a ae be 5d 6a 50 3e 1f 7e 29 3f 25 de 32 bd
       -0.34065875 0.20353074 0.6620807 -0.043668885
000080 63 b1 90 3e 86 ca 86 3e 3d b7 c0 3e 1e 5a 82 be
       0.28260335 0.26326388 0.376398 -0.2545938
000090 48 c2 90 3d f5 dd f7 3d 1a 9c 13 bd 30 0d a4 3d
       0.07068306 0.12102882 -0.036037542 0.08010328
0000a0 82 24 3e 3d 7d 0d 30 3f 7b ca f3 3e 4f 85 8e 3d
       0.046421535 0.6877058 0.47615418 0.0695902
0000b0 0f 15 a4 be b4 bc 6c 3e a6 9f 8a 3e 1a 9d b2 3e
       -0.32047316 0.2311886 0.27074927 0.34885484
0000c0 13 41 f9 3d b2 f5 ce 3d eb 3e 70 bc 0c 52 61 be
       0.12170615 0.101054564 -0.014663438 -0.22003955
0000d0 a5 0d 1a 3f 65 8e 7d 3d 0a bb 0c 3e 3f 18 98 bf
       0.6017707 0.061903376 0.13743225 -1.1882399
0000e0 b8 ac 85 be e8 98 c1 bd 0a 1c f0 3b 2a c7 64 3e
       -0.26108336 -0.09452993 0.0073275613 0.223416
0000f0 c0 fb 30 bd 59 9b 89 3e d7 e8 d5 3d 18 cc 86 3e
       -0.043208838 0.26876333 0.10444801 0.26327586
000100 04 e4 19 be 09 ea d4 be 94 73 e5 3d de 48 85 bd
       -0.15028387 -0.41584805 0.112036854 -0.06508039
000110 ae b7 48 3e 75 3a 96 be 29 f0 3b 3b 8e af f7 3d
       0.19601318 -0.29341474 0.0028677082 0.12094031
000120 92 9c e1 bd 20 9b d8 be 05 6f a2 bd c0 84 05 bf
       -0.110161915 -0.4230585 -0.079313315 -0.52155685
000130 51 9e 02 3f f3 65 55 3e ba 99 b5 3e 7b 15 93 be
       0.5102282 0.20839672 0.35468847 -0.28727326
000140 9c c5 b9 be 53 d1 93 bf ae da 57 3d 31 21 9e 3e
       -0.36283576 -1.1548256 0.052698784 0.30884698
000150 1d 1f 8a be 8b 3b 04 3e 2a c8 22 be 3c c5 84 3d
       -0.26976863 0.12913339 -0.15896669 0.06482932
000160 88 e9 3b 3e b5 ea 77 3e 18 dc 41 bd 9a e9 9e 3d
       0.18350804 0.24210627 -0.04732904 0.077594
000170 0c be 99 bd 89 c1 b7 3e f4 56 cf bc c7 3a c1 bd
       -0.07506952 0.35889843 -0.025310017 -0.09435039
000180 f6 f5 2c be bf eb e1 bd b3 11 2a be 49 67 e3 bd
       -0.16890702 -0.11031293 -0.16608314 -0.111036845
000190 a0 35 96 be b9 04 a3 3e ff 0d 21 3d 79 5d ad bd
       -0.29337788 0.3183954 0.03931999 -0.08465094
0001a0 df b9 51 3e 64 d2 ec 3c af 03 1f bf fe 79 c4 bd
       0.2048106 0.028908916 -0.62114996 -0.09593581
0001b0 de 41 ed bb d2 d1 dc 3c 51 75 7f 3d f6 24 2f bb
       -0.007240518 0.026955519 0.06236774 -0.0026724911
0001c0 a1 67 80 3d 60 1e 83 bd 5b c4 fa bd 85 dc d2 3e
       0.06269766 -0.06402278 -0.12244483 0.41183868
0001d0 20 b3 26 3e e3 25 1b 3e ad 00 d4 bd 13 d4 0b 3e
       0.16279268 0.15151171 -0.103516914 0.13655119
0001e0 60 6d 2d 3c 13 37 e4 3b f4 c0 86 be 96 65 63 3e
       0.010585159 0.006964573 -0.26319087 0.2220672
0001f0 43 24 cf 3e f4 dc 2c bf 0d 15 98 be 4d d2 65 3e
       0.40457353 -0.6752465 -0.2970356 0.22443505
000200 00 e7 b8 3e 1f 6f d2 be 60 60 57 be 2f 4f 8d 3d
       0.3611374 -0.41100404 -0.21032858 0.06899869
000210 8c 7e c1 3d 03 c1 7f be 03 69 b4 3e c7 51 b9 3d
       0.09447965 -0.24975972 0.35236368 0.09048801
000220 cf a7 0d 3d 6d b7 13 3e 48 6c a3 be c6 8a 50 3e
       0.034583863 0.1442544 -0.3191855 0.20365438
000230 d7 7b 91 be 71 b4 df bc 99 1f 4d be 83 1b a8 3e
       -0.28414795 -0.02730772 -0.20031585 0.3283349
000240 80 b9 b0 3e 10 76 d7 3c 4b 43 e5 bd 3e 7b 40 be
       0.34516525 0.026301414 -0.11194476 -0.18797013
000250 9f 81 51 3e 56 f8 57 3e 4d 60 96 be 37 ba 2c 3e
       0.20459603 0.21090826 -0.29370347 0.1686791
000260 e6 e7 7b be 7b 96 cc be e1 73 48 3e cb a8 f1 3d
       -0.24600181 -0.39958557 0.19575454 0.11799773
000270 c3 b9 26 3f c3 b5 8e be e2 08 e4 bc ab fb 53 be
       0.651272 -0.27873048 -0.027836267 -0.20701472
000280 19 c2 49 be 5d 7b c4 3c b1 8d 62 be 8c 7a a2 3d
       -0.19702949 0.023984605 -0.22124363 0.0793353
000290 27 15 0f be 77 8f 29 bd 62 72 0a be 07 a1 8f 3e
       -0.13972913 -0.041396584 -0.13520196 0.28052542
0002a0 dc 31 37 3e e9 32 24 be 84 d6 34 bd be 96 b2 bd
       0.17890114 -0.16035046 -0.04414989 -0.08720158
0002b0 53 b2 63 3f 45 0e f4 3d f0 eb 58 be c3 56 fd 3d
       0.88943976 0.11916784 -0.21183753 0.12370064
0002c0 a3 6b 65 3d a5 2e 85 3d b2 1f 35 3e 5a fd e9 bd
       0.056010853 0.06503037 0.17687872 -0.11425276
0002d0 84 d7 60 3e 00 8e cf bd 49 5f 44 be d6 e6 14 3e
       0.21957213 -0.10134506 -0.19176973 0.14541182
0002e0 c4 da aa be 13 23 fa 3c b0 d8 f3 3e 04 7a 01 be
       -0.3337003 0.030534303 0.47626257 -0.12644202
0002f0 2f 2b c3 3d dc c7 ff 3a d2 4f 5e be 95 12 88 3d
       0.09529721 0.0019514519 -0.21710137 0.06644169
000300 4c 99 88 bd d2 b0 ba be f1 78 40 3d 45 20 2d 3e
       -0.06669864 -0.36463028 0.04699034 0.16906841
000310 df 6d 39 3f f1 28 8d be 48 17 57 be 0f e4 14 3e
       0.72433275 -0.27570298 -0.21004975 0.14540122
000320 a9 22 32 3e b3 48 c3 3e d2 d2 63 be 4d e3 cf bd
       0.17396034 0.38141403 -0.2224839 -0.10150776
000330 f7 6a d7 be 06 9d c4 bd 75 ea c9 bc 94 e0 d6 3d
       -0.42073795 -0.09600262 -0.02464793 0.10492054
000340 9c 2c 01 be 85 97 f3 bd 65 a2 63 bc 7c db 34 bf
       -0.12614673 -0.118941344 -0.013893698 -0.70647407
000350 b6 5c 06 3e 66 20 27 3f 74 ec 76 3e 0a 90 78 3e
       0.13121304 0.6528381 0.24113637 0.24273697
000360 56 68 ce bd b9 d2 d6 bc bd 2c e5 bc cb 0e e8 be
       -0.10078494 -0.026223527 -0.027975434 -0.45323786
000370 e3 6f 20 3e ec 2a d3 bc 35 3c 6b be 16 71 39 3d
       0.15667681 -0.025777303 -0.22972186 0.045273863
000380 00 3e 7c bc f3 9d 8f be a9 95 26 be 51 c1 b6 3e
       -0.015395641 -0.28050193 -0.16268028 0.35694364
000390 fd 3c 4e 3e a8 9b 46 3e 1d de 82 3e f2 b2 39 be
       0.20140453 0.19395316 0.25560084 -0.18134668
0003a0 5a 3b 6f 3e d7 ab 30 be 43 6d 49 be 5a 31 64 3e
       0.23362485 -0.17253052 -0.19670586 0.22284451
0003b0 c7 c8 13 bd 43 5e ae 3e 2c 0f 88 3c 24 3d 1b be
       -0.036080148 0.3405629 0.016608797 -0.15160042
0003c0 0a 86 73 be 20 0e d2 3d 0c 92 09 3d 29 35 d3 3c
       -0.237816 0.102566004 0.033586547 0.025782185
0003d0 60 f0 e7 3e 2a 50 17 3c 44 5c 33 be e1 f2 8a 3d
       0.4530058 0.009235421 -0.17515665 0.06784607
0003e0 57 45 35 be a1 7d 32 be ac 93 ea ba fd 5b 1a 3f
       -0.17702232 -0.17430736 -0.0017896793 0.6029661
0003f0 0f bf f5 bd 2d 08 02 bf 95 20 da 3e 3c 93 7b be
       -0.11999332 -0.50793725 0.42602983 -0.24567884

fc1.bias f4 [84]
000000 04 d9 71 bd 1a c6 8c bd 87 48 7a bc 1b 3a d9 3c
       -0.059044853 -0.068737224 -0.015276081 0.026516965
000010 8b a0 82 bd d8 12 3b 3d 65 2d 33 3d cc ee 31 bb
       -0.063782774 0.045672268 0.043744463 -0.002715039
000020 de 33 08 3d f9 0c 64 3d 83 85 58 bd b4 39 37 bd
       0.03325259 0.055676434 -0.0528617 -0.044732764
000030 bd 88 97 bc 36 41 91 3c 14 7d 34 bd 90 03 28 3d
       -0.01849782 0.01773129 -0.044064596 0.041019022
000040 06 e0 5a bd 38 62 a1 3d 8f c1 6e bd 0e 75 7a bd
       -0.0534363 0.07880062 -0.05829006 -0.06114679
000050 95 5b a4 3c 41 6f 63 bb 53 0a fd 3c f2 ce 20 3d
       0.020063201 -0.0034703764 0.030888712 0.03925986
000060 24 8c bd bc 2c c4 95 3d 84 60 fe 3c f0 c8 e5 bb
       -0.023138113 0.073128074 0.031051882 -0.007012479
000070 32 46 46 bd 27 30 f7 bc 17 37 a3 3d 89 b0 17 3d
       -0.048406787 -0.030174328 0.07969492 0.03703359
000080 17 56 ad 3d a9 44 be bc 0e 36 c8 3d c3 7a 4b 3d
       0.08463686 -0.0232261 0.09775935 0.04967762
000090 83 8e cc 3d c6 00 cc 3d 74 30 b5 3d d3 eb 05 bc
       0.099881195 0.09961085 0.08847132 -0.008173901
0000a0 ca 42 6b bd cd 6d f9 bc a4 ab 9c 3d 44 c4 0a bd
       -0.057436742 -0.030447865 0.07649925 -0.03387858
0000b0 59 21 65 3c 44 e0 2a 3d 4d be 8f 3d 95 34 9d bd
       0.0139850015 0.041717783 0.07018719 -0.07676045
0000c0 19 ee 84 bd 9b d8 f8 3c b4 76 cd bd c8 21 8b bd
       -0.06490726 0.030376723 -0.100324064 -0.06793553
0000d0 25 27 8b 3d a9 14 06 bd 0c dc 35 3c 64 86 31 bc
       0.067945756 -0.032734547 0.011099827 -0.010835264
0000e0 3b b2 f4 bc 92 23 77 bd c4 4e 0d ba fe bc 15 3d
       -0.029870143 -0.060336657 -0.000539046 0.03655719
0000f0 93 29 09 3d 22 ac a5 3b 6e b6 c0 3c 13 8d 8a 3c
       0.033486914 0.00505592 0.02352449 0.016912973
000100 8d 59 52 3d aa f7 b0 3b ae 44 8a bb 3c 87 16 3d
       0.051354934 0.0054006176 -0.004219613 0.036750063
000110 53 6e 58 3d 84 1e 58 3d d0 7f 87 3d 71 4e 25 bd
       0.05283959 0.052763477 0.06616175 -0.04035801
000120 35 f4 94 bc 40 53 c4 bd 4a 19 64 3d 63 16 a7 3d
       -0.018182853 -0.09586191 0.05568818 0.08158567
000130 9b 8b 9c 3d 73 b4 94 bd bd 52 a4 3d 1f ab aa bd
       0.07643815 -0.072609805 0.080235936 -0.0833342
000140 95 15 17 bd 49 14 80 bc 14 ee 9c bd 3a 86 95 3c
       -0.036885817 -0.015634673 -0.07662597 0.01825248

fc2.weight f4 [10, 84]
000000 e7 d9 eb be 38 3d d9 3e ce 11 a6 3e c0 0e dd 3e
       -0.46064684 0.4242952 0.3243546 0.43175316
000010 aa 34 2b bf b5 f9 82 3d 15 39 2d be 1e 44 9f 3e
       -0.66877234 0.06395284 -0.16916306 0.31106657
000020 60 41 0b bf 35 68 32 bf 23 90 65 3b 31 e0 b7 3e
       -0.5439663 -0.6969026 0.003502854 0.35913232
000030 19 4d 1a bf d2 f3 ff be 0c fc d2 3e 7b 90 31 be
       -0.6027389 -0.49990708 0.41207922 -0.17340271
000040 c0 bd e2 3e 24 11 70 3e 7e 21 27 bf 0c 82 73 3e
       0.44285393 0.23444039 -0.6528548 0.23780078
000050 0c 65 9a 3e dc c3 1f bf 59 fa a0 3e a1 18 b9 3d
       0.30155218 -0.6240823 0.31441 0.09037901
000060 16 e1 68 bd 4f 87 9e bd 33 fc b0 be bd 20 2d be
       -0.056855284 -0.07740652 -0.34567413 -0.1690702
000070 a0 06 38 3e 20 68 92 3e ef b6 42 3e 5a d8 03 3f
       0.17971277 0.28595066 0.19015096 0.51502
000080 82 7a 96 be 08 f1 0c 3f 61 62 6b bf 12 6c 8a 3e
       -0.2939034 0.55055285 -0.9194699 0.27035576
000090 cb 5f 96 be e4 2f b2 be 76 c4 7a 3e ee 3f c1 3e
       -0.2936996 -0.34802163 0.24489006 0.37744087
0000a0 2e 8d 97 bd 4b a2 a7 3e 44 78 7e be e1 a3 e2 be
       -0.07399975 0.32741007 -0.24850565 -0.44265655
0000b0 57 b8 54 3e 87 22 42 3e ab 89 f1 3d 62 b1 dc be
       0.20773445 0.18958484 0.11793836 -0.43104082
0000c0 59 88 2d bf 52 88 92 be 93 3a d0 be 88 9e e9 3c
       -0.67786175 -0.2861963 -0.4066969 0.028517976
0000d0 f7 e5 31 bf 75 88 75 3e 61 81 5a 3e 75 fa 81 3e
       -0.69491524 0.23977835 0.21338417 0.25386396
0000e0 07 16 45 3e 98 a3 0b bf 79 ba a0 be 84 b0 ae 3e
       0.19246684 -0.545465 -0.31392267 0.34119046
0000f0 6f 8d 61 3e e2 09 04 bf 38 18 2d bf 9d 69 8b 3e
       0.22026609 -0.5157758 -0.6761508 0.27229014
000100 9c 53 0c bf a7 c5 a0 3e ac 27 35 bd a7 13 bc be
       -0.5481508 0.31400797 -0.044227287 -0.36733744
000110 c3 b7 2b 3e 58 91 f7 3e e9 bd 5b 3e 90 d8 30 be
       0.16769318 0.48353076 0.21459164 -0.17270112
000120 60 21 26 be 36 7b 94 be b0 7d b0 3e b3 9f 6e 3e
       -0.16223669 -0.29000252 0.34470892 0.23303108
000130 d8 2f 0e be 60 08 d2 be 03 85 fd be d2 27 81 bd
       -0.13885438 -0.41022015 -0.49515542 -0.06306423
000140 09 e1 2b 3e 1d c2 c0 be 4e c8 e1 3e f2 7c af be
       0.16785063 -0.37648097 0.44098133 -0.34275013
000150 1a 3d d7 3d cd 09 18 bf 6d c2 03 bf d8 37 7d bb
       0.10509701 -0.59389955 -0.51468545 -0.0038638022
000160 fa f7 64 3e 17 99 75 be 68 e5 16 3f a6 f7 fb be
       0.2236022 -0.2398418 0.58943796 -0.49212378
000170 ca e0 92 3e 66 09 cb 3e bb b1 ce be d3 6c 72 be
       0.28687125 0.39655608 -0.40369973 -0.23674326
000180 ac e1 0e 3d 89 f4 08 bf c9 17 3a 3d e2 da ae 3e
       0.034883186 -0.5349813 0.04543284 0.3415137
000190 3e ed 91 bc 8f eb a9 3e f0 63 e8 3e 94 ac 0a 3e
       -0.017813321 0.3318753 0.45388746 0.13542396
0001a0 f2 63 1d bf 9f 50 00 3f 83 46 47 bf 59 27 8c be
       -0.6148063 0.5012302 -0.7784197 -0.2737377
0001b0 0c 3d 4e 3d 26 f2 5b 3d 0f 5c dc 3e 76 8a 78 3e
       0.050351188 0.053697728 0.43038985 0.24271569
0001c0 35 b6 b7 be 16 59 85 be f9 75 ee be df b0 9b ba
       -0.358812 -0.2604453 -0.4657438 -0.0011878273
0001d0 90 83 0e 3e aa 4b b4 be 9e b1 74 3e 76 6f cf be
       0.13917375 -0.35213977 0.2389588 -0.40514725
0001e0 d3 16 14 3f cf 46 b9 3e 16 a4 a8 3e 10 2d 3e be
       0.57847327 0.36186835 0.32937688 -0.18571877
0001f0 73 ac 02 bf 27 4d d8 be 2c 3f ff 3e 20 e5 b8 3e
       -0.51044387 -0.42246363 0.49852884 0.36112309
000200 da ad e8 be c0 3d e3 be bc bc 0f bf b6 97 34 3e
       -0.45445138 -0.4438305 -0.5614736 0.17635998
000210 58 ec ca 3e 36 8e f5 3e a0 59 94 be a7 4b 94 bd
       0.3963344 0.4796006 -0.28974628 -0.07240992
000220 67 11 46 bd 29 a3 21 be 63 e1 db be 3c 09 13 bf
       -0.04835644 -0.15784897 -0.42945394 -0.57435966
000230 be ee fa be 0f 9e f2 3d fb 5d ac 3e be ba b4 3d
       -0.4901027 0.118465535 0.3366545 0.08824681
000240 65 1b d2 be 07 06 a4 3e 62 6c ab 3e af 86 03 bf
       -0.41036525 0.32035848 0.33481127 -0.51377386
000250 c4 58 c6 3e b5 3d 15 3e 24 f0 72 3e ec eb fa 3e
       0.38739598 0.1457432 0.23724419 0.4900812
000260 84 a9 bc 3d a7 d3 02 bf fa 99 cf be 73 12 52 bd
       0.0921202 -0.51104206 -0.40547162 -0.051287126
000270 31 84 d3 bc 6c 7a a7 3e b8 99 e5 be b4 a0 f0 be
       -0.02581987 0.32710588 -0.4484384 -0.46997607
000280 ac d3 b6 3e 20 c5 1e 3f 4d 7d 12 3e 5b 8f 83 be
       0.35708368 0.6201954 0.14305611 -0.2569531
000290 7e f9 ee be 76 cb 6a 3e eb 89 e6 be 12 78 e2 be
       -0.46674722 0.22929177 -0.45027098 -0.4423223
0002a0 03 07 9b bd 00 a8 a6 3e f0 95 0d 3f 80 d2 11 be
       -0.07569697 0.3255005 0.5530691 -0.14240456
0002b0 e7 17 2f bf 0d 3d 47 be 0b 60 3c be c7 ef ff 3e
       -0.6839585 -0.19456883 -0.18396012 0.49987623
0002c0 92 98 9c 3e c3 c2 cc bc 36 f7 49 bb ba 21 9e bb
       0.30585152 -0.024995213 -0.0030817515 -0.004825798
0002d0 85 82 f3 be d4 11 27 bf 5e e6 cb 3e b2 8e e9 be
       -0.47560516 -0.6526158 0.39824194 -0.4561668
0002e0 f8 ec 92 3e e2 58 ea be 3e 89 e7 3e ef 13 5b bc
       0.28696418 -0.45770937 0.45221895 -0.013371452
0002f0 92 50 0a bf 46 0e d0 3e af 67 01 bf 50 83 c6 be
       -0.5402919 0.4063589 -0.50548834 -0.38772058
000300 42 27 c5 3e 3d 7b 53 bd 33 fa 2d bf e3 24 05 bf
       0.38506514 -0.0516312 -0.679599 -0.5200941
000310 33 bc bd 3d 36 73 0d bf 1b bb 11 3e 37 47 01 3f
       0.09264412 -0.5525392 0.14231531 0.5049929
000320 76 29 08 bf df d8 bf be 2c b5 b7 3e ab cd 28 3e
       -0.53188264 -0.37470147 0.3588041 0.16484706
000330 10 8d b3 3e f6 b2 4d 3d a9 21 a0 bc 1e 4f 41 bf
       0.3506856 0.0502195 -0.0195473 -0.7551135
000340 eb 86 06 bf 90 2f fb 3d 6e 8d 6a be 2e 35 c0 3c
       -0.5254962 0.12264931 -0.22905514 0.023462858
000350 10 c2 3c 3e d1 9b 0f be 8b 43 f5 be f2 60 c1 be
       0.18433404 -0.14024283 -0.47903094 -0.37769276
000360 24 83 cd 3e 67 64 be 3d 66 e2 ce bd a8 5f 85 be
       0.40139115 0.09296494 -0.10101776 -0.26049542
000370 21 d8 40 bd 58 76 f6 3e 05 89 ee be 2c fc f5 3d
       -0.047081117 0.48137164 -0.46588913 0.120109886
000380 e3 82 3d 3d 78 e8 39 bf 92 0d 94 3e f2 02 07 bf
       0.0462674 -0.72620344 0.28916603 -0.5273887
000390 12 2b 8e 3e e5 8d 24 be cb 65 fa 3d 46 4e 34 bc
       0.27767235 -0.16069753 0.12226447 -0.01100499
0003a0 99 4a cd 3e c1 50 51 be cf b4 98 3d a2 b4 25 bd
       0.40095976 -0.20440961 0.074563615 -0.040455468
0003b0 02 ef 3f be 85 fc d4 3e 27 a4 ec 3d b2 de 5e 3e
       -0.18743518 0.41598907 0.11554747 0.21764639
0003c0 02 44 f8 be d6 c9 de 3e 5c 61 35 3e 91 a8 9d 3d
       -0.48489386 0.43513364 0.17712921 0.07698167
0003d0 be 8c 7d 3e 97 7e b2 3e a1 60 e3 be 1b dc 46 be
       0.2476072 0.34862205 -0.4440966 -0.19419901
0003e0 f9 60 3d 3e 72 dd 34 be c0 cc c4 3e 50 9a 89 bd
       0.18494023 -0.176626 0.38437462 -0.06718886
0003f0 6d 69 6d be cd 0e 48 bd 09 7b 68 be 1b f7 1f bf
       -0.23184748 -0.04884224 -0.22703184 -0.6248643

fc2.bias f4 [10]
000000 97 97 51 bd 17 7f ed 3d 14 f4 0f be 48 7c 09 3d
       -0.051169958 0.11596506 -0.14057952 0.03356579
000010 24 bf d5 bb 30 3c 7b 3c 26 c9 69 3c 75 c6 53 3d
       -0.00652303 0.015334174 0.014269149 0.051702935
000020 57 0b b7 bd d6 d6 c7 bc
       -0.0893771 -0.024394434
